src/model/model.pth (torch, 110867 bytes, 4 tensors)

in_to_hidden.weight f4 [128, 185]
000000 aa 97 85 3e 82 3b a9 3d 65 80 42 3d fe de 15 bd
       0.26092273 0.08263303 0.047485728 -0.036589615
000010 05 fb ca bd 5a c5 47 3b aa c3 57 3c 80 85 a0 bb
       -0.099111594 0.003048262 0.013169209 -0.004898727
000020 28 fe 70 bd 12 d1 64 3c 0f b4 6e 3d ae 86 cc 3b
       -0.058836132 0.013965862 0.058277186 0.006241641
000030 73 fa 92 3c 5b 48 18 be a2 d2 90 bd 2e 6f ec bc
       0.01794169 -0.14871351 -0.07071425 -0.028861608
000040 6e 29 2a bc fd 3d ca 3d 96 66 1e bc b9 da fb bd
       -0.010385854 0.098751046 -0.009668013 -0.122975774
000050 76 62 35 3c 91 0c a0 3d 14 57 df bd 6f ba 85 3c
       0.011070838 0.07814897 -0.10905281 0.01632425
000060 ed 78 78 bd 4a dd ef bb af 4d 86 3d 20 2b f4 bc
       -0.0606622 -0.007320081 0.06557786 -0.02980572
000070 3d 3f 86 3d 5b 65 78 3d 3c da a8 3d 71 9c a7 3d
       0.065550305 0.060643535 0.0824475 0.08184136
000080 2e ab c0 3c 40 21 ae bd 5f 03 1d 3d c1 47 a1 3c
       0.023519125 -0.08502436 0.038333293 0.019687535
000090 6e 9d 9c bc fe fa 14 3d 49 0c a9 bd a9 46 44 bc
       -0.019118037 0.036372177 -0.08254296 -0.011979737
0000a0 09 25 24 bc 81 e3 b2 bc f1 b1 7c 3c 6b f0 a9 3d
       -0.0100185955 -0.021836998 0.015423284 0.08297809
0000b0 13 4a bc bd 82 f8 36 bd c0 cb 9b bd 11 63 42 bc
       -0.09193816 -0.04467059 -0.076072216 -0.01186444
0000c0 27 7f 96 bd 81 1c 21 3b b9 ed 9c bd 11 a6 e6 bc
       -0.07348471 0.002458364 -0.076625295 -0.028155359
0000d0 3b 23 93 3d c0 28 79 bb 28 e1 9c bc c0 16 75 3c
       0.07184454 -0.0038018674 -0.019150332 0.014959037
0000e0 b3 24 16 3d 6d 6b 1e bc 21 71 d8 bd c2 b0 42 3d
       0.036656093 -0.009669167 -0.105684526 0.04753185
0000f0 54 04 01 bd 40 24 a2 3d 28 99 96 3d 69 9a 22 3c
       -0.03149827 0.079170704 0.07353431 0.00992451
000100 b8 ea 83 3d 25 e1 1f 3d 8d b3 86 3d 79 c6 8c bd
       0.064412534 0.039033074 0.06577215 -0.06873793
000110 c3 ab 87 3d 1b 5d c8 3b 1a 4d 40 bd 80 d1 32 3d
       0.06624558 0.0061146147 -0.04694853 0.043656826
000120 67 7a b1 bb 18 58 77 bc 47 3d de bc cc 82 1c 3c
       -0.005416203 -0.015096687 -0.027128829 0.009552669
000130 ee 54 8d bd 48 5f 70 3d d0 2d 50 bb 2a ad a5 bd
       -0.06900965 0.058684617 -0.0031765588 -0.08089669
000140 e8 94 8d b9 7a 8c f4 3d c5 17 60 bd 57 4b f2 bb
       -0.0002700456 0.11940856 -0.05471017 -0.007394235
000150 12 82 21 3d d6 81 9d bd 6e 72 3d bd dc 4f ed 3c
       0.039430685 -0.0769078 -0.046251707 0.028968744
000160 d5 62 1f 3d 90 18 4c 3d 6a 15 3a 3d 14 68 6b bd
       0.038912613 0.049828112 0.04543058 -0.057472304
000170 06 76 8c bd 45 68 31 3c be 8f ac bd 05 ba cb 3c
       -0.06858449 0.010828082 -0.08425854 0.024868974
000180 c0 a0 4d bd a8 8a 0a 3c 28 b4 dc bb 4a f1 6b bc
       -0.05020213 0.00845591 -0.0067353435 -0.0144007895
000190 5a 52 b9 3c f0 2c 42 bd c1 65 a1 3c 3f 82 8e 3c
       0.022622276 -0.047406137 0.01970184 0.01739609
0001a0 07 b8 59 bc 5c 12 64 3d ab d2 3d 3d 12 2d 96 3d
       -0.013288504 0.05568157 0.046343487 0.07332815
0001b0 b6 54 81 bd ef b6 98 bc 57 d6 31 bd 64 d0 0d 3d
       -0.063149855 -0.018641917 -0.0434173 0.034622565
0001c0 61 b5 0b 3d 91 b2 7b 3d f8 01 a6 3d 26 3d f2 3d
       0.034108523 0.06144959 0.08105844 0.118280694
0001d0 cc 95 43 bd a4 58 20 3c 80 ee 35 3d 0d 86 43 bd
       -0.04775028 0.009786759 0.044416904 -0.047735263
0001e0 a2 b1 a0 3c 8c 3c 0e 3d 55 28 04 3d 6d 77 a5 bd
       0.019615952 0.03472571 0.032265026 -0.08079419
0001f0 5f d5 c3 3c c3 28 ae 3d 93 15 06 3e b8 81 c2 bb
       0.023905454 0.085038684 0.13094167 -0.005935874
000200 38 87 a4 bd 6d 34 31 3c 75 61 ab bb fd d7 20 3d
       -0.080336034 0.010815722 -0.0052301236 0.039268482
000210 13 96 a0 3d 7b fc 28 bd 56 4e da bc ec 8e 7b 3d
       0.078411244 -0.04125641 -0.026648682 0.061415598
000220 0b c4 72 3d bb 93 90 3d 6d ee 30 3d 95 d5 81 3b
       0.059268992 0.07059427 0.04319613 0.0039622285
000230 e5 29 e7 3c bf e7 8a 3c 27 cb aa bd 57 fe 05 bc
       0.028218219 0.016956208 -0.083395295 -0.008178315
000240 f3 54 c1 bd d7 b9 c6 bb 87 48 47 3d bf 75 cc bd
       -0.09440031 -0.0060646343 0.04865315 -0.09983396
000250 16 da 40 3d 82 da 91 3c c3 31 29 3d 7c b1 a1 3d
       0.047082983 0.017804388 0.041307222 0.078951806
000260 f4 95 7f 3b 8c 32 57 3d 54 39 76 bd b5 59 2d 3d
       0.003899929 0.05253844 -0.060113266 0.04232188
000270 90 75 87 bc bb 9c 4a 3d 17 c7 3e bd 08 77 2f bd
       -0.01653555 0.049465876 -0.046576586 -0.042838126
000280 27 89 61 3d af 35 08 3d 2d 5e f1 bc 24 2a 41 ba
       0.05506244 0.03325432 -0.029463852 -0.0007368645
000290 c0 d8 29 bc 41 52 d7 3c 9e ae 98 3d f6 3f 88 bd
       -0.010366619 0.026284339 0.074551806 -0.066528246
0002a0 c5 bd 9b 3d 7d fb 20 bd e0 24 fb bc 6c 1e 68 3d
       0.07604555 -0.039302338 -0.030657232 0.056669638
0002b0 fc 8c f8 bd 84 3d 4d 3d 85 06 90 3d ba 52 98 bc
       -0.12136266 0.050107494 0.070324935 -0.018594135
0002c0 4e d1 54 3d dd cb 42 bc fa f2 43 bc 03 33 20 bd
       0.05195742 -0.011889425 -0.011959786 -0.03911115
0002d0 0a da dd 3c b4 1b 0e 3d 8a fa 40 3d e0 5e a0 3c
       0.027081508 0.03469439 0.047113933 0.01957649
0002e0 92 0a 70 bd 4e a6 9a be 9c 0d c0 b9 19 20 3d be
       -0.05860383 -0.30205005 -0.00036631234 -0.18469276
0002f0 fd 27 07 3c d1 f1 e8 3d 73 21 32 bd 47 d4 7f 3c
       0.00824928 0.11374248 -0.04348893 0.015614576
000300 be 32 d5 3d ab c3 46 be 69 b9 b1 3d 54 92 ff 3d
       0.10410069 -0.19410579 0.08677942 0.12479082
000310 bc ce 17 be 4f c7 c9 3c a2 f5 4e 3d 72 30 f4 bd
       -0.14824957 0.02463117 0.050527222 -0.11923303
000320 9a 06 fd 3c 56 d0 a2 3c 2e 19 f6 3b f7 81 3a bd
       0.030886937 0.019874733 0.007510326 -0.0455341
000330 ae 2f d4 bc d6 68 7d bd 91 bf 41 be 50 8c fc 3d
       -0.025901642 -0.061867557 -0.18920733 0.1233145
000340 d6 d6 4f 3c d2 c2 ef 3c 05 cf 2b 3d 37 30 c8 bb
       0.012685498 0.029267702 0.041945476 -0.0061092633
000350 5b 6d 6e bd ce 22 86 bd b9 9f 62 bc c1 bd ac 3c
       -0.05820976 -0.06549607 -0.013832026 0.021086575
000360 c1 37 20 3d 86 09 48 3d f0 30 18 3d ef e2 8b bd
       0.03911567 0.048837207 0.037156045 -0.068303935
000370 cc e1 0c 3e ee ef 63 3c 89 4a 18 3d fe 4a 7a 3d
       0.1375801 0.013912184 0.037180457 0.061106674
000380 34 d5 12 bb 14 96 fe bd bd 1e 02 bd f4 ea e4 3d
       -0.002240491 -0.12430969 -0.031767596 0.11177626
000390 16 81 5e bd ad 20 e2 3d 84 79 79 3d 31 ef f4 3c
       -0.054322325 0.11041389 0.060906902 0.029899212
0003a0 99 a1 e8 bc 37 21 68 3d 32 bb 9b 3d 17 be 15 3e
       -0.028397368 0.0566723 0.07604064 0.14623295
0003b0 6a 2f d2 3d cd e1 63 3d e2 29 ef bc 18 0b 2a bc
       0.1026295 0.055635262 -0.029194776 -0.0103786215
0003c0 98 89 54 3d 24 8e 19 be 0b 16 bd bd d2 28 a6 3d
       0.051889032 -0.14995629 -0.0923272 0.081132546
0003d0 28 39 06 3e 75 a8 85 bd c6 8e a3 3d 0f 8f c1 bd
       0.13107741 -0.06526271 0.07986216 -0.094511144
0003e0 5b 2a be 3d f2 7b e4 bb 90 80 32 bd 9f 21 f7 bc
       0.092854224 -0.0069727832 -0.043579638 -0.030167399
0003f0 9d b3 af 3d 54 79 bf 3d 0c 79 09 be 59 f7 25 3c
       0.085791804 0.093493134 -0.13425082 0.010129773

in_to_hidden.bias f4 [128]
000000 45 94 e7 bd 58 3a cd 3d 39 eb 35 be b3 18 21 bd
       -0.11307577 0.10020894 -0.17765512 -0.039330196
000010 12 39 52 be 78 8f 9e 3e 0c 5a 72 3d 9b 23 ea b9
       -0.20529583 0.30968833 0.059167907 -0.00044658486
000020 f7 7e 3a be 3f 0c 7e 3c 7a 17 1a 3d b6 d6 bc 3d
       -0.18212496 0.015505849 0.037620045 0.0922064
000030 b3 c2 a5 bd ca 20 31 3d 96 2a aa 3d 15 65 9a 3d
       -0.080937766 0.04324416 0.08308904 0.07538811
000040 04 24 04 be ad ca 39 be 1d 0f b3 3e 00 a6 4c bd
       -0.12904364 -0.18143721 0.34972468 -0.049962997
000050 8b a4 37 3e 8b 78 76 3e fd 8e 12 3e fa 69 0e 3e
       0.17933862 0.24069421 0.14312358 0.13907614
000060 09 5e 69 bd a9 9c 2f be 3c 71 63 be 16 3f a0 bd
       -0.056974445 -0.17149605 -0.22211164 -0.07824533
000070 ef f2 46 bd 55 79 26 bd 55 42 65 bd 7b 86 d7 3d
       -0.048571523 -0.040643055 -0.055971462 0.10523697
000080 48 1b 10 3e 90 8f 28 be 21 a5 17 3e 89 0d 57 be
       0.14072907 -0.16461015 0.14809085 -0.21001257
000090 c4 21 5a bc 5f c9 98 be 10 ee 55 3e 99 a4 50 be
       -0.013313714 -0.29841134 0.20891595 -0.20375289
0000a0 ed bd 5c 3d e4 b8 96 3d b6 35 90 be 98 e8 3e bd
       0.053892065 0.07359484 -0.28165978 -0.046608537
0000b0 5c 58 63 bd 0e 47 66 be 61 d8 fe bd 3d 90 83 3e
       -0.055504188 -0.22488043 -0.12443615 0.25695983
0000c0 95 9e 53 bd 75 06 2f 3e fc fe 18 3d 35 9a 73 bd
       -0.051664907 0.17092307 0.037352547 -0.059473235
0000d0 e3 50 83 3d 01 33 92 3d 91 39 4a bd 4a 96 8b 3e
       0.06411912 0.071386345 -0.049371306 0.272631
0000e0 17 9f aa 3c e4 97 0b bc e5 e8 1b 3d 6e 77 d6 bd
       0.020827813 -0.0085201 0.038063902 -0.10471998
0000f0 0d 85 54 3c ee e5 77 bc f8 11 ad 3d 50 36 07 be
       0.012971175 -0.015130503 0.08450693 -0.13204312
000100 82 73 17 be 05 57 31 3e 64 fb 3c bd 33 77 51 bd
       -0.14790156 0.17318352 -0.046138182 -0.051139068
000110 29 72 1a 3e be 01 0b 3e f7 08 22 bd 4f 8d 01 3e
       0.15082611 0.13574883 -0.03955933 0.12651561
000120 53 9b 05 be c3 9d 20 be 32 ce 72 bd 10 88 67 be
       -0.13047533 -0.15685181 -0.059278674 -0.22610497
000130 e6 b6 74 bc b2 5b 3e bc 8f 4e b1 3d c6 d8 96 3d
       -0.0149361845 -0.011618542 0.08657562 0.07365565
000140 45 6c dc bd d7 7d 41 bd 1a 4a 94 be d2 e7 2a 3e
       -0.10762838 -0.04723915 -0.28962785 0.16689995
000150 dd c5 5f 3e 01 30 ea bc 6d 71 0b 3c d2 12 cd bc
       0.21852823 -0.028587343 0.0085109295 -0.025033388
000160 69 a0 a1 bd bb 66 51 bc 84 f1 d4 3c 85 12 85 3d
       -0.07891924 -0.0127808405 0.02599407 0.06497673
000170 dc 44 4a 3e 91 19 c6 bd ad d7 91 bd 5f 32 26 bc
       0.1975283 -0.09672845 -0.07121215 -0.010143845
000180 bc 15 31 bc 10 ba 08 be f7 8b 07 be ae 2e 53 bc
       -0.010808405 -0.13352227 -0.13236986 -0.012889547
000190 67 6d 70 bd 60 4d e5 3d 0d 16 a7 3a c4 36 59 3e
       -0.058698084 0.11196399 0.001274766 0.21212298
0001a0 f9 f8 ae 3d 10 c3 9c 3d 12 d6 e5 bd 7a 58 ff 3d
       0.085435815 0.07654393 -0.11222471 0.124680474
0001b0 73 b4 2e 3d c3 14 50 3e 5f 41 9b be 6b d5 88 bd
       0.04265256 0.2032042 -0.30323312 -0.06681331
0001c0 0f 9e 03 3e b5 47 42 3d 23 43 21 3e af 91 6a bd
       0.12853263 0.047431666 0.15748267 -0.05726784
0001d0 27 af c5 3b d2 8f 29 3e 2b f3 c0 3d 03 9b c6 3d
       0.0060328427 0.1655877 0.094213806 0.09697535
0001e0 a5 37 25 bd c9 d9 31 be 0c 51 88 3d 46 54 4a be
       -0.04033627 -0.17368235 0.066560835 -0.1975871
0001f0 69 5a 20 bd d0 eb 03 3e 8a fb 87 3d e4 9e 9f 3d
       -0.03914872 0.12882924 0.06639774 0.07793978

in_to_out.weight f4 [19, 185]
000000 21 85 f9 3d 4a f6 85 3e a8 dd a7 bd a9 59 9e 3e
       0.121835954 0.26164466 -0.081965744 0.3092778
000010 99 73 ac be 1f a0 9d 3e da b2 30 be 77 c1 fa 3d
       -0.33681944 0.30786225 -0.17255726 0.12243932
000020 75 52 0c 3e b6 3b 81 bd 96 8a 32 be e6 a1 29 bd
       0.1370333 -0.06310217 -0.17435679 -0.041414164
000030 e8 02 74 3e f0 98 9a be 90 a4 ad be 96 86 59 bd
       0.23829234 -0.30194807 -0.33914614 -0.053106867
000040 cb d4 86 3d 90 26 b8 3e e0 43 8c 3d 6a 79 b9 bd
       0.06583556 0.3596692 0.06848884 -0.09056361
000050 ff de 28 be 18 89 bc bd 69 7c fd 3c 5d ff 04 3c
       -0.16491316 -0.09205836 0.030943112 0.008117524
000060 7a e3 a7 3d dc d5 d6 3c 6c 50 5b 3d 2f af 8e bd
       0.081976846 0.026225023 0.053543493 -0.06967007
000070 80 97 84 bd f0 7d 28 3c 50 71 dd 3c c2 b5 84 3d
       -0.06474209 0.010283932 0.02703157 0.0647998
000080 60 b8 d8 3c a3 2b 69 bd 02 49 1b 3d e4 79 89 3d
       0.026455104 -0.05692638 0.037911423 0.06712702
000090 55 5e 36 bd 28 9f 32 3c 58 f9 d4 3c 80 b0 5a 3d
       -0.044523556 0.010902204 0.025997803 0.05339098
0000a0 b2 13 71 bd 8c 97 63 bd 62 19 10 3d 00 ca f2 bb
       -0.058856674 -0.05556445 0.035180457 -0.007409334
0000b0 aa a8 50 bd 99 ac 8b bd 80 75 f0 ba a8 33 8c 3d
       -0.0509421 -0.0682003 -0.0018345565 0.0684579
0000c0 c6 ef 60 bd 64 ab 25 bd 5c 38 5a bc 00 20 27 ba
       -0.054916166 -0.040446654 -0.013319101 -0.0006375313
0000d0 0d ac 27 bd 08 80 5e bd 6b 10 65 bd f6 c2 78 bd
       -0.040935565 -0.05432132 -0.05592386 -0.060732804
0000e0 e8 7f 3b 3d 35 f2 e3 3d 04 94 6c be 87 7b 7b 3c
       0.045776278 0.11130182 -0.23103338 0.015349275
0000f0 d3 93 1e 3e 96 fe 69 3b 47 bf 70 3e ce c4 e9 bd
       0.15486078 0.0035704724 0.23510467 -0.11414491
000100 d7 9b a1 3c 3e 06 d2 39 b2 a9 c3 3d 53 6b 19 be
       0.01972763 0.00040058972 0.09553851 -0.14982347
000110 d2 d4 17 3e e8 c9 30 3d ab 93 88 3c 82 47 39 be
       0.14827278 0.043161303 0.016671976 -0.18093684
000120 e5 ac b9 3d d3 e3 02 bd 49 94 13 3e 8e dc 26 be
       0.0906618 -0.03195555 0.14412035 -0.16295072
000130 f6 7b 07 3e eb 89 22 3c 01 fe 3c 3d ad 69 6e 3d
       0.13230881 0.0099205775 0.046140675 0.05820625
000140 ca 06 f7 bd 1a 38 ba 3d 05 33 31 3e 73 c8 5a 3d
       -0.12061842 0.09092732 0.17304619 0.05341382
000150 58 83 09 be e4 d6 18 be bc 7f 8f 3d 74 cb 02 3e
       -0.1342901 -0.14925724 0.07006785 0.12772924
000160 b1 16 af 3d a7 7d f0 bd ff e1 9d 3c ab 72 10 be
       0.0854925 -0.11742716 0.019272802 -0.14106242
000170 8b 4f 8d bd 42 ff 30 be 3a 9a b7 bd ad 31 35 3e
       -0.06899937 -0.17284873 -0.08964963 0.17694731
000180 f1 b2 a6 3d 60 35 1a 3d 82 5e c0 3d 9f e8 d4 3d
       0.08139599 0.03764856 0.09393026 0.103959315
000190 28 2d 97 3d b2 53 0c be 13 90 48 be 3b 2f 99 3e
       0.0738166 -0.13703802 -0.1958621 0.29918846
0001a0 b8 6c 43 3c a3 ac e8 bd ad c5 2d 3e 44 f0 16 3d
       0.011927776 -0.11361053 0.16969939 0.03685023
0001b0 48 39 c0 bd 49 84 05 be 72 fc cd bc e0 17 39 be
       -0.093859255 -0.13038744 -0.02514479 -0.18075514
0001c0 5e ae 20 3e 84 1b 0f be a5 48 21 3e 50 58 a1 3d
       0.15691516 -0.1397534 0.15750368 0.078781724
0001d0 5f d7 36 3e 0f 2e b2 3c 7c 0f cf bc b5 e9 fc 3d
       0.17855595 0.021750478 -0.025275938 0.123492636
0001e0 ed 8f fc bc 56 90 4a 3e be a0 3d 3e 5e 57 6d 3d
       -0.030830348 0.19781622 0.1851835 0.057944648
0001f0 31 55 19 be 06 68 02 be 00 2e ae 3c e7 5a df 3d
       -0.14973904 -0.12734994 0.021262169 0.1090601
000200 b8 f6 cb 3d 6b cb dc 3d 40 66 1a 3e 47 dd d4 3d
       0.09959167 0.107809864 0.15078068 0.10393768
000210 fa f9 4a bd ff 4c 7b be 82 a0 a2 bd 91 d2 05 be
       -0.049554802 -0.2454109 -0.07940771 -0.13068606
000220 83 35 d3 bd 04 ad 22 bd ca 12 2e be 33 a0 92 3d
       -0.10312941 -0.03971578 -0.16999355 0.07159462
000230 93 b1 9a 3d a9 73 9d 3d 12 8e 48 3e 59 ca 1f be
       0.07553401 0.07688076 0.19585446 -0.15604533
000240 8f 36 05 bd 6d 4d b3 bd c5 31 0e bc 0d b4 22 3d
       -0.032522734 -0.08755002 -0.008678858 0.03972249
000250 4c 8d 56 3d a9 00 f8 3d 94 44 60 3e 8e 8b e8 bd
       0.052380845 0.12109501 0.2190116 -0.11354743
000260 ad 98 09 3d 88 93 08 3e 0e 84 c6 3d 6f 4a d3 3d
       0.03359287 0.13337529 0.09693156 0.103169315
000270 ff 27 c8 be 13 64 29 3d 27 4a c3 3c 45 be 0f be
       -0.39093015 0.041355204 0.02383907 -0.14037426
000280 cc 0b ac 3d 65 b0 cb bd ab 4f 04 3e ce 91 d3 bd
       0.084006876 -0.09945754 0.12921016 -0.103305444
000290 40 d6 59 bc d8 a8 01 be 12 94 68 be 7c 66 7f 3d
       -0.01329571 -0.12662065 -0.22712734 0.062353596
0002a0 ba 03 e2 b9 5e 0c ba 3d 67 bd 22 3d 26 f8 2e 3d
       -0.00043108856 0.0908439 0.03973141 0.04271712
0002b0 7b ca 60 bd 6f ba ac 3d 6e db 2b bd a5 e0 c2 bd
       -0.0548806 0.08433997 -0.04195731 -0.09515504
0002c0 b7 e6 14 3e d8 69 7e 3e 12 98 8c 3d 8d 38 41 be
       0.14541136 0.24845064 0.068649426 -0.18869229
0002d0 fe 58 15 3d 46 af d6 3d 00 39 9a 3d fa 2e 4e 3d
       0.036461823 0.104826495 0.07530403 0.05033777
0002e0 db 57 3f 3e 61 72 67 be 43 c2 cb bd 3f da 4e bd
       0.18685858 -0.22602226 -0.09949162 -0.050501104
0002f0 41 09 8f bd bb 82 8d 3c 4f 88 95 3c 62 ca 56 3f
       -0.06984187 0.017274251 0.018253474 0.8390256
000300 53 29 21 be e4 08 1c 3e b1 97 75 bd 14 4a 46 bd
       -0.1573842 0.15237767 -0.059959117 -0.04841049
000310 04 51 77 bd 71 85 0b be 08 92 7d 3e e6 2d 9c 3d
       -0.060379997 -0.13625123 0.24762738 0.07625942
000320 96 79 ad 3b 25 dc 13 bd a0 2c f7 bd 50 c9 5c be
       0.005294035 -0.036098618 -0.120690584 -0.2156117
000330 8e 80 d0 bd 86 14 4b 3e 67 07 b5 3c 3f 5c 8e 3d
       -0.1018077 0.19832048 0.022098256 0.06951188
000340 b3 92 80 bd fc 6d 43 be ac eb 84 bd a6 fc 8c 3d
       -0.06277981 -0.19084924 -0.06490263 0.06884126
000350 c9 48 8e 3c c0 7f 7b bd f4 14 6c 3d 5a a5 69 bd
       0.017368691 -0.06140113 0.05763717 -0.057042457
000360 1c 78 6d 3d e2 bb 43 3d be 10 2c bd fe 2f a8 bc
       0.057975873 0.0477866 -0.042008154 -0.020530697
000370 dc 99 0c bd 70 75 6c 3d f0 33 d9 3c 8a 0c 80 bd
       -0.03432642 0.057729185 0.026514024 -0.06252392
000380 42 5d 4c bd 5c c8 58 bd cc 26 1b 3d 7c 64 b0 3c
       -0.049893625 -0.052925453 0.037878796 0.02153229
000390 be a5 38 bd d8 49 05 bd af 39 4c bd 6b d3 62 bd
       -0.04507994 -0.032541126 -0.0498597 -0.055377405
0003a0 c0 56 17 bc a0 0d 28 3b f7 e9 80 bd 50 86 0f bc
       -0.009236991 0.0025642887 -0.06294625 -0.00876005
0003b0 06 ae d2 bc 2c b4 d6 bc f8 0f 71 bd dd 0e 7a 3d
       -0.025717746 -0.02620896 -0.05885312 0.06104933
0003c0 dc 2a df 3c b0 58 01 bd 6f 65 15 3d d0 a4 47 3d
       0.027242117 -0.03157872 0.036473688 0.04874116
0003d0 a5 a4 bd bd f4 15 6c bd 7a 49 98 bd 10 d7 1e 3e
       -0.09259919 -0.057638124 -0.074358895 0.15511727
0003e0 04 a7 c1 3e 3f f2 55 bd 6b 34 7c be 6b 56 ee 3b
       0.37822735 -0.052232977 -0.24629371 0.0072734854
0003f0 90 cd a0 3e 27 03 c2 3b 8e 1b 8d be 34 a6 07 bd
       0.31406832 0.005920786 -0.27560085 -0.033117488

in_to_out.bias f4 [19]
000000 f2 50 15 3c da 6e 30 3e 09 90 2f bd ed c4 81 bd
       0.009113537 0.17229787 -0.042861972 -0.06336389
000010 35 35 29 3d 03 58 35 bd 2d 27 70 3d ef 1b b0 be
       0.041310508 -0.044273388 0.05863111 -0.34396312
000020 47 10 dd bd 90 bd b0 3c 18 49 38 be 88 e9 bc bd
       -0.1079412 0.021574765 -0.17996633 -0.0922423
000030 0f c8 12 3f c7 2d aa bc 52 27 35 be 6a 08 87 bd
       0.57336515 -0.020773781 -0.17690781 -0.06593402
000040 55 63 6c bc 07 dc b7 bd 70 62 f0 3e
       -0.0144279795 -0.08977514 0.46950102
